data.pth (torch, 5418 bytes, 6 tensors)

l1.weight f4 [8, 54]
0.3671359 0.13158888 -0.29234052 -0.3055836 -0.28414163 0.40528813 -0.15641388 -0.05255348
-0.15220498 -0.13725509 -0.19556828 -0.21556805 0.15940988 -0.117523886 0.031352807 -0.031314712
-0.23812231 0.57732964 0.18968005 -0.43359274 0.44351378 -0.4335829 -0.43354437 -0.45640913
-0.03611718 -0.31223744 0.4619416 -0.045084737 0.24841201 -0.29643106 0.29192147 -0.10323714
0.33008698 -0.21827158 0.13850784 -0.041138656 0.3766018 -0.051096633 -0.040246394 0.078556836
0.15947635 0.34530726 -0.047621317 0.10879225 -0.19949323 0.028170118 0.6992579 0.42535153
0.18435313 0.50238454 -0.26047945 0.292555 0.012313323 0.30716327 -0.27315968 0.27953377
0.4769925 -0.28557068 0.17888516 0.73079693 0.2882032 0.44279474 0.63240415 0.41232508
-0.25964105 0.49165392 0.6276056 0.6850304 0.18764941 0.16457956 -0.30242795 0.7930371
-0.059779458 -0.35079303 -0.1071385 -0.34242544 -0.3639298 -0.17444225 0.44733942 -0.31241667
0.120659016 0.18574852 0.119721144 0.0028441686 0.30140612 0.66252226 0.0047126887 0.45562208
0.46892637 0.4004334 0.11740216 0.5912349 0.27728266 0.4973493 0.23702092 -0.10419655
0.3650248 0.23089196 0.71954995 0.52850443 -0.64120525 -0.26070708 0.012205649 0.004297221
0.14134903 0.035160065 0.504261 0.33312774 0.18575454 -0.3412063 0.14290644 0.16452846
0.18675591 -0.48224393 0.0750109 0.06742622 0.30902508 -0.008595804 0.27841106 0.55158126
0.488013 0.7009927 -0.12910898 0.4812818 0.17221136 -0.48226604 0.42421043 0.47782716
-0.012576019 0.35045967 0.34288788 0.48040527 0.29254895 0.09893984 0.68803895 -0.5524536
0.46668866 -0.4407208 -0.5294622 0.5568562 0.10449051 0.0633334 -0.19849235 0.50061226
0.2596349 0.30939078 0.21891595 0.12937877 -0.32333136 0.6934087 0.54418826 -0.07721131
0.5961431 -0.083434686 0.1033325 0.07635764 0.54721713 0.79795456 0.46991494 0.5555042
0.015353512 0.37056544 0.4598231 0.620561 0.063012175 0.5724992 0.38991898 -0.58489686
0.23134446 0.22085404 -0.0022434164 0.21805042 0.46236652 -0.42716047 0.20473118 -0.28824338
0.36430997 -0.12725723 0.56516385 -0.64478385 -0.26467547 0.73253417 0.43169215 0.7422933
0.6678146 0.27810407 0.14059839 0.4951587 -0.32401234 0.6098501 -0.44616616 0.44208372
-0.42816758 -0.27551353 0.27704412 0.2254094 0.6058344 -0.34824935 -0.46043462 -0.16233194
0.3030008 0.24722412 -0.44818795 -0.31879917 -0.34532425 0.5163488 -0.06355219 0.63725
0.7132052 0.44494045 0.5572273 -0.33625582 -0.20990317 -0.11133319 0.3476258 0.25941965
0.7078221 -0.0176786 -0.39468682 -0.33337417 -0.17344533 0.7166763 -0.19577295 -0.19047703
-0.34982377 -0.19570486 -0.29248577 0.10314289 -0.00046618958 -0.09043125 -0.16254264 -0.08227909
-0.22839825 0.6889648 0.43964085 -0.5209231 0.5129756 -0.52072537 -0.52093184 -0.34982
0.037716728 -0.3667325 0.5027105 -0.3185723 0.28949258 -0.3790171 0.066737585 0.072460026
0.3644303 -0.30285978 -0.14863887 -0.12030836 0.3064682 -0.19266188 -0.14189419 -0.088348575
00000000: 3df9 bb3e 3cbf 063e a8ad 95be 7475 9cbe
00000010: 037b 91be ed81 cf3e f62a 20be 5142 57bd
00000020: 9fdb 1bbe 998c 0cbe 0d43 48be dfbd 5cbe
00000030: 583c 233e 5db0 f0bd cd6b 003d db43 00bd
00000040: 56d6 73be e0cb 133f 7d3b 423e deff ddbe
00000050: 3d14 e33e 94fe ddbe 87f9 ddbe 75ae e9be
00000060: 9cef 13bd 96dd 9fbe 9c83 ec3e c6aa 38bd
00000070: b85f 7e3e d0c5 97be bb76 953e fe6d d3bd
00000080: 2901 a93e 9682 5fbe 00d5 0d3e 0281 28bd
00000090: f3d1 c03e b44a 51bd 67d9 24bd 68e2 a03d
000000a0: c54d 233e 1dcc b03e 920e 43bd 79ce de3d
000000b0: f447 4cbe 05c5 e63c 9102 333f adc7 d93e
000000c0: 11c7 3c3e 469c 003f 905d 85be c5c9 953e
000000d0: d2bd 493c 8144 9d3e 96db 8bbe 0d1f 8f3e
000000e0: 5c38 f43e 5236 92be ac2d 373e 8215 3b3f
000000f0: 5f8f 933e feb5 e23e 3de5 213f 461c d33e
00000100: acef 84be 10ba fb3e c3aa 203f 275e 2f3f
00000110: 2b27 403e 8b87 283e d6d7 9abe 7b04 4b3f
00000120: 4edb 74bd 259b b3be 6e6b dbbd 6352 afbe
00000130: 0255 babe fda0 32be ac09 e53e 14f5 9fbe
00000140: 131c f73d dc34 3e3e 5c30 f53d 3b65 3a3b
00000150: e751 9a3e 0f9b 293f e66c 9a3b 4c47 e93e
00000160: 1e17 f03e 9b05 cd3e 8b70 f03d 2c5b 173f
00000170: fef7 8d3e 91a4 fe3e 9db5 723e 0065 d5bd
00000180: 88e4 ba3e f16e 6c3e 6d34 383f 114c 073f
00000190: 0726 24bf 667b 85be 34fa 473c b4cf 8c3b
000001a0: cdbd 103e 0004 103d 4017 013f b88f aa3e
000001b0: 7036 3e3e 98b2 aebe 1156 123e 267a 283e
000001c0: f13c 3f3e ade8 f6be 519f 993d c216 8a3d
000001d0: 8938 9e3e 6ad5 0cbc e58b 8e3e 6e34 0d3f
000001e0: d7dc f93e 4274 333f 2535 04be 916a f63e
000001f0: 2d58 303e 93eb f6be 1c32 d93e c3a5 f43e
00000200: a60b 4ebc 736f b33e 008f af3e aef7 f53e
00000210: fac8 953e f9a0 ca3d 5223 303f 996d 0dbf
00000220: d1f1 ee3e 28a6 e1be d68a 07bf 218e 0e3f
00000230: 1fff d53d f1b4 813d 9441 4bbe 2028 003f
00000240: deee 843e 7868 9e3e 812b 603e de7b 043e
00000250: b08b a5be 3c83 313f ec4f 0b3f f720 9ebd
00000260: d69c 183f cedf aabd fd9f d33d 6561 9c3d
00000270: 6c16 0c3f c046 4c3f b198 f03e 8635 0e3f
00000280: 4c8d 7b3c c1ba bd3e ef6d eb3e 16dd 1e3f
00000290: 870c 813d 4f8f 123f 76a3 c73e cdbb 15bf
000002a0: 90e5 6c3e 9027 623e 4806 13bb 9c48 5f3e
000002b0: 4ebb ec3e c7b4 dabe 0da5 513e a394 93be
000002c0: d686 ba3e b84f 02be 94ae 103f 8e10 25bf
000002d0: 8b83 87be 5c87 3b3f c106 dd3e ef06 3e3f
000002e0: e6f5 2a3f a863 8e3e 06f9 0f3e 7185 fd3e
000002f0: f2e4 a5be 231f 1c3f e46f e4be cc58 e23e
00000300: c838 dbbe 1c10 8dbe bad8 8d3e b9d1 663e
00000310: f717 1b3f bd4d b2be 16be ebbe 583a 26be
00000320: ec22 9b3e 5228 7d3e e478 e5be a539 a3be
00000330: 57ce b0be 6f2f 043f a727 82bd d122 233f
00000340: 9e94 363f 3ccf e33e 73a6 0e3f b929 acbe
00000350: dbf0 56be a802 e4bd 02fc b13e a7d2 843e
00000360: d433 353f b6d2 90bc 6414 cabe 05b0 aabe
00000370: a79b 31be 1978 373f b478 48be 690c 43be
00000380: 1a1c b3be db66 48be b2c0 95be 943c d33d
00000390: e86a f4b9 0534 b9bd 9471 26be f181 a8bd
000003a0: 3be1 69be ff5f 303f 9b18 e13e 375b 05bf
000003b0: 5e52 033f 424e 05bf ca5b 05bf 9b1b b3be
000003c0: db7c 1a3d 5dc4 bbbe a3b1 003f e91b a3be
000003d0: 5f38 943e 880e c2be b7ad 883d ec65 943d
000003e0: 9c96 ba3e 7010 9bbe ca34 18be 3b64 f6bd
000003f0: 66e9 9c3e 2849 45be b64c 11be 19f0 b4bd

l1.bias f4 [8]
0.43350226 0.6410372 0.48227653 0.8422542 0.5207088 0.39343786 1.0667189 0.30008838
00000000: 02f4 dd3e 041b 243f f3ec f63e f99d 573f
00000010: 2c4d 053f b070 c93e 3f8a 883f 2fa5 993e

l2.weight f4 [8, 8]
-0.1794372 -0.34222725 0.106648386 -0.18613435 -0.23000273 -0.16550444 -0.11348835 -0.2850215
1.084289 -0.6880438 1.0262722 0.3287603 1.1692076 -0.12827398 -0.10599859 0.03375618
0.27590904 -0.2283493 -0.051887542 -0.16300769 -0.32330528 -0.25769496 -0.16164804 0.15177795
-0.09799521 0.77887136 -0.107164934 1.4099963 -0.7196306 1.1188585 -0.8402145 0.6542494
-1.207751 0.33043095 1.077384 0.7672968 -0.7611511 -0.5589809 1.3567247 -1.2048914
0.8017895 1.1571937 0.9077754 -0.64038163 0.48502442 -0.6301731 0.6486935 0.99158365
0.7737045 -0.3060436 -0.8668833 0.9984511 0.5784792 0.5535051 0.89452887 -0.7097206
0.32644132 0.3983351 -1.0819029 -0.706108 0.38207814 0.12560013 0.63910335 0.48794365
00000000: 63be 37be 6938 afbe 786a da3d 019a 3ebe
00000010: d685 6bbe ff79 29be 946c e8bd 57ee 91be
00000020: fbc9 8a3f a323 30bf e35c 833f 4553 a83e
00000030: 98a8 953f 415a 03be ca15 d9bd ec43 0a3d
00000040: f343 8d3e 66d4 69be 0888 54bd 7deb 26be
00000050: 4588 a5be 98f0 83be 1087 25be ae6b 1b3e
00000060: b6b1 c8bd 1d64 473f 4a79 dbbd c27a b43f
00000070: b639 38bf c136 8f3f 4c18 57bf e47c 273f
00000080: 9697 9abf 3f2e a93e b8e7 893f 906d 443f
00000090: ccda 42bf 5f19 0fbf 28a9 ad3f e239 9abf
000000a0: 1442 4d3f ec1e 943f f863 683f 0df0 23bf
000000b0: 1f55 f83e 0653 21bf c710 263f 6dd8 7d3f
000000c0: 8011 463f bfb1 9cbe 10ec 5dbf 7e9a 7f3f
000000d0: 3617 143f 83b2 0d3f d8ff 643f 40b0 35bf
000000e0: 5123 a73e 94f2 cb3e cb7b 8abf 7ec3 34bf
000000f0: bf9f c33e 529d 003e 479c 233f c0d3 f93e

l2.bias f4 [8]
-0.1299472 0.06301516 -0.2819146 0.6878293 0.84867644 -0.014341896 0.6752288 0.47975165
00000000: e110 05be 180e 813d 1c57 90be 9515 303f
00000010: dc42 593f 46fa 6abc cbdb 2c3f 02a2 f53e

l3.weight f4 [7, 8]
0.11241415 -0.5297793 -0.17019832 -1.0985956 0.53312254 0.27719548 -1.3789527 -0.9904946
0.04319948 -1.6370398 -0.3009516 0.55996966 -0.51671326 -1.560003 0.5390218 -0.37486142
0.26513866 -0.5111194 -0.27620906 -0.8626418 -0.59915817 0.21802765 0.2086052 0.9993261
-0.14566052 -0.69264424 -0.067825735 -0.11836295 0.839215 -1.0562553 0.41492516 -0.72577333
0.15600315 0.67103815 -0.25429806 -0.9422276 -0.7738843 0.41315287 -1.3350341 -0.5597529
0.22696808 -1.0090775 0.043706328 0.51721865 -0.2969902 0.13508187 -1.3558639 -0.76621246
-0.09169394 0.7673631 -8.007884e-05 -0.3455996 -1.1854697 -0.91132593 0.74849486 -1.0616134
00000000: 6439 e63d 9e9f 07bf 7848 2ebe c89e 8cbf
00000010: b87a 083f 91ec 8d3e 8681 b0bf 0e91 7dbf
00000020: f0f1 303d 858a d1bf 5416 9abe 2c5a 0f3f
00000030: 5247 04bf 2eae c7bf 55fd 093f d6ed bfbe
00000040: 41c0 873e b9d8 02bf 466b 8dbe 18d6 5cbf
00000050: 6e62 19bf a442 5f3e 9a9c 553e d6d3 7f3f
00000060: 0828 15be 2251 31bf 38e8 8abd 4668 f2bd
00000070: cbd6 563f 6033 87bf 1271 d43e 48cc 39bf
00000080: 4abf 1f3e 28c9 2b3f 5b33 82be d435 71bf
00000090: 481d 46bf c688 d33e 66e2 aabf f74b 0fbf
000000a0: 526a 683e 7429 81bf 6805 333d 7168 043f
000000b0: 190f 98be e752 0a3e f38c adbf 8026 44bf
000000c0: 08ca bbbd e871 443f 00f0 a7b8 6ef2 b0be
000000d0: 79bd 97bf a84c 69bf 5c9d 3f3f f3e2 87bf

l3.bias f4 [7]
-0.077822424 -0.45906162 0.00550739 0.24966314 0.0031756628 0.13683999 0.07551895
00000000: 5d61 9fbd 200a ebbe 5677 b43b b2a7 7f3e
00000010: c81e 503b c81f 0c3e aea9 9a3d
